notebooks/model_lstm_v1.tflite (tflite, 46368 bytes, 10 tensors)

sequential_1/dense_6/BiasAdd/ReadVariableOp f4 [15]
-0.11388279 -0.04796827 -0.113373436 -0.010390857 -0.024478374 -0.07710521 1.2883581 -0.19202873
-0.052202053 -0.037041463 -0.0072532245 -0.056726243 1.4894109 0.8722391 -0.27478755
00000000: 613b e9bd 607a 44bd 5530 e8bd 6a3e 2abc
00000010: df86 c8bc 56e9 9dbd ebe8 a43f 2ea3 44be
00000020: d2d1 55bd cab8 17bd 75ac edbb c759 68bd
00000030: 04a5 be3f 104b 5f3f f4b0 8cbe

sequential_1/dense_5/BiasAdd/ReadVariableOp f4 [30]
-0.07743616 -0.05136011 -0.27796185 -0.2684455 -0.18316731 0.3127435 -0.36091617 -0.1803241
-0.1913093 -0.19286142 -0.10073716 -0.26921573 -0.2889523 -0.88037926 -0.1572339 -0.045673933
-0.5713627 -0.1907828 -0.11443614 -0.25880265 -0.16376212 -0.17358634 -0.2017064 -0.1385081
-0.15818524 -0.018563412 -0.23038572 -0.019244617 -0.14583683 -0.10257074
00000000: d996 9ebd fb5e 52bd 0451 8ebe b071 89be
00000010: 3690 3bbe eb1f a03e 01ca b8be e2a6 38be
00000020: 96e6 43be 777d 45be 494f cebd a5d6 89be
00000030: 8ef1 93be 8960 61bf ec01 21be 9714 3bbd
00000040: d344 12bf 915c 43be 7f5d eabd c881 84be
00000050: 42b1 27be 9ec0 31be 1f8c 4ebe 11d5 0dbe
00000060: 50fb 21be 4c12 98bc 3cea 6bbe e3a6 9dbc
00000070: 4056 15be 9c10 d2bd

sequential_1/dense_4/BiasAdd/ReadVariableOp f4 [50]
-0.22063182 -0.106508814 -0.24056095 -0.06324545 -0.37234697 -0.75508535 -0.18875396 -1.0948637
-0.42321053 -0.10687695 -0.22822398 -0.23807697 -0.1231638 -0.23044746 -0.14333199 -0.1936155
-0.09529096 -0.7733673 -0.45627537 -1.1124979 -0.36691257 -0.5918059 -0.12148277 -0.11777864
-1.0077854 -0.23325257 -0.4115582 -0.16328093 -0.119617335 -0.1819916 -0.20317172 -0.29062524
-0.28989533 -0.27588138 -0.17615752 -0.24436176 -0.115904845 -0.19123441 -0.37601468 -0.35855585
-0.16485289 -0.1524643 -0.3086281 -0.27766728 -0.30915552 0.29504418 -0.45110282 -0.13956481
-0.09279665 -0.21474332
00000000: 4fed 61be 4b21 dabd 9c55 76be d586 81bd
00000010: 43a4 bebe 464d 41bf b848 41be 7e24 8cbf
00000020: 0daf d8be 4de2 dabd 8cb3 69be 73ca 73be
00000030: 4d3d fcbd 6bfa 6bbe 9fc5 12be 2443 46be
00000040: e827 c3bd 66fb 45bf ed9c e9be 5566 8ebf
00000050: f7db bbbe 9780 17bf f5cb f8bd ed35 f1bd
00000060: 1dff 80bf c3d9 6ebe c2b7 d2be 1e33 27be
00000070: eff9 f4bd 025c 3abe 3f0c 50be d5cc 94be
00000080: 296d 94be 5340 8dbe a362 34be f839 7abe
00000090: 855f edbd f4d2 43be ff84 c0be a294 b7be
000000a0: 32cf 28be 9a1f 1cbe 8104 9ebe 682a 8ebe
000000b0: a249 9ebe 0810 973e f3f6 e6be 14ea 0ebe
000000c0: 2c0c bebd ace5 5bbe

sequential_1/dense_4/MatMul f4 [50, 30]
-0.12339036 -0.054883674 -0.111941084 -0.22045368 -0.27309337 -0.053749785 -0.27542183 0.21531512
0.13287582 0.16990489 -0.243447 -0.27017516 0.017967679 -0.15101732 -0.051616207 0.26361805
-0.0016815591 -0.012323835 -0.120636985 0.040375628 -0.28969046 0.033967994 -0.09134817 0.09364166
-0.07845484 0.19341928 -0.31688777 0.020868782 0.08126944 0.04798787 0.034401365 -0.027516618
-0.0923987 -0.27185097 0.011040763 -0.10022353 -0.28393033 -0.14810371 -0.25019482 0.066233456
0.07876116 0.055541165 0.13805021 0.084074944 0.016060356 -0.19847882 0.09683145 -0.26173705
8.2908366e-05 -0.14963198 -0.07703773 0.10808261 -0.26278934 -0.042138617 0.09206092 0.020266011
0.071909316 -0.25278628 0.13378456 -0.0026372802 0.029099533 -0.29431725 -0.109959505 0.104983464
-0.2214615 0.13874406 -0.099522695 -0.09837675 -0.045739885 -0.0970334 -0.051349126 -0.14051917
-0.16948912 -0.66236615 0.15523979 -0.18762265 -0.14375496 -0.42075816 0.29217315 -0.0014151271
-0.2459166 -0.10417465 -0.078903854 0.07568115 0.15104072 0.23224887 -0.22202297 0.2626377
0.31997147 -0.17222035 -0.01231714 -0.25419867 0.019369602 -0.24569568 -0.01193996 -0.30071732
0.1570104 0.042187467 1.5133891e-05 0.13392758 0.1480875 0.11135472 -0.26023373 0.20566371
-0.06889845 -0.09687869 0.26849875 0.12424809 0.12796102 0.12809592 -0.104408704 -0.19497699
-0.09700664 -0.0446928 -0.27639684 -0.0290616 -0.0714501 0.1531507 -0.12176416 -0.009815853
0.16957623 0.5223957 0.070473135 -0.087850004 0.22115064 0.16506477 0.094291575 0.09012152
0.21226525 0.24951783 -0.078769915 0.19193476 -0.14594449 -1.8076756 -0.05245502 -0.26131615
-0.029687924 -1.3514427 0.026565248 -0.6364193 1.5357658 0.84197843 0.6552429 0.12190799
-0.11715615 0.14721581 0.79747146 1.2711688 2.3409243 0.30379164 0.08394444 1.460708
-0.15230344 -0.051581368 -0.034986675 -0.15626551 -0.1582871 -0.2852931 -0.106057405 -0.27918592
-0.16782798 -0.23961678 -0.018818527 -3.8516357 -0.1499863 -0.22801812 -0.12986247 -0.30955806
-0.10559662 0.7482752 0.61938834 -0.026829615 -0.47279373 -0.093745306 0.0996743 -0.16247848
-1.1516333 0.061459232 -6.514299 0.3337818 -0.027866213 -0.079138234 0.23903872 -0.049135294
0.0906308 -0.17002904 -0.04240225 -0.15025067 0.057826903 -0.20401834 -0.14869432 -0.18716319
-0.19052468 -0.36975032 -0.24155581 0.121108055 0.017727643 -0.31509003 0.0035354306 -0.17916079
-0.2486565 -0.03995437 0.122360446 -0.32728788 0.10625485 -0.15019768 0.029952826 0.123110965
-0.01609156 -0.07915385 -0.2106067 -4.0568023 -0.0459494 -0.0052821073 0.15467557 -0.23860006
-0.21336426 0.08338175 -0.12495424 0.22225942 -0.10545494 -0.15271628 0.011684805 1.1838348
-0.27141562 0.13485384 -0.11494983 0.6756812 0.14190273 0.8025845 1.8171114 1.1496937
-0.08329249 1.3225293 -0.031774938 -0.15488875 1.3276153 -2.0868843 -0.008950446 1.6676933
0.003261327 -0.55385995 -0.26725662 -0.083622254 0.04835565 -0.48823348 -0.20304468 0.111841194
-0.28307968 0.12711419 0.2551019 -0.03367121 -0.012799585 -0.5421064 -0.15433714 -0.22516465
00000000: 16b4 fcbd b4cd 60bd 5e41 e5bd 9cbe 61be
00000010: e5d2 8bbe bc28 5cbd 1704 8dbe 917b 5c3e
00000020: 9910 083e 8cfb 2d3e 2c4a 79be 6654 8abe
00000030: f430 933c 49a4 1abe 846b 53bd f2f8 863e
00000040: c367 dcba e9e9 49bc 8610 f7bd ea60 253d
00000050: 4f52 94be 0622 0b3d c014 bbbd 33c7 bf3d
00000060: eeac a0bd b40f 463e 1d3f a2be 02f5 aa3c
00000070: 9870 a63d ee8e 443d 72e8 0c3d 886a e1bc
00000080: 883b bdbd 0d30 8bbe 51e4 343c fe41 cdbd
00000090: 515f 91be 80a8 17be 8919 80be 68a5 873d
000000a0: 884d a13d 227f 633d 095d 0d3e 7c2f ac3d
000000b0: 0291 833c 083e 4bbe 914f c63d 6602 86be
000000c0: 17df ad38 2039 19be f5c5 9dbd 6a5a dd3d
000000d0: 538c 86be 8b99 2cbd 708a bc3d e804 a63c
000000e0: 3145 933d 346d 81be d2fe 083e 38d6 2cbb
000000f0: 2562 ee3c c0b0 96be 7332 e1bd 9201 d73d
00000100: cec6 62be ec12 0e3e 8ed2 cbbd c079 c9bd
00000110: bf59 3bbd 72b9 c6bd 7653 52bd 42e4 0fbe
00000120: 8e8e 2dbe d490 29bf 2ef7 1e3e 2720 40be
00000130: 8034 13be 9d6d d7be b897 953e c97b b9ba
00000140: 90d1 7bbe 8559 d5bd 5898 a1bd b8fe 9a3d
00000150: 6baa 1a3e a6d2 6d3e fd59 63be 7378 863e
00000160: 4dd3 a33e 885a 30be d4cd 49bc 5426 82be
00000170: 00ad 9e3c a697 7bbe d29f 43bc 9ff7 99be
00000180: 56c7 203e c4cc 2c3d 91e7 7d37 5024 093e
00000190: 40a4 173e f20d e43d 5b3d 85be 8299 523e
000001a0: a11a 8dbd 5668 c6bd ab78 893e c875 fe3d
000001b0: 3708 033e 942b 033e 3bd4 d5bd 0ca8 47be
000001c0: 6bab c6bd cc0f 37bd e383 8dbe 9812 eebc
000001d0: 6e54 92bd 89d3 1c3e 7d5f f9bd acd2 20bc
000001e0: 64a5 2d3e b9bb 053f 3854 903d b4ea b3bd
000001f0: 5075 623e bd06 293e f11b c13d a291 b83d
00000200: 105c 593e 9a81 7f3e 1f52 a1bd 8c8a 443e
00000210: 7972 15be ea61 e7bf 13db 56bd 3bcb 85be
00000220: 1734 f3bc 13fc acbf 5d9f d93c 60ec 22bf
00000230: f993 c43f e68b 573f 00be 273f e5aa f93d
00000240: 90ef efbd bebf 163e 1727 4c3f a9b5 a23f
00000250: b4d1 1540 948a 9b3e 10eb ab3d 7bf8 ba3f
00000260: 6ff5 1bbe fc46 53bd 304e 0fbd 1104 20be
00000270: 0316 22be f011 92be a034 d9bd 75f1 8ebe
00000280: 19db 2bbe 1a5e 75be 5029 9abc 3381 76c0
00000290: 0296 19be 957d 69be abfa 04be 657e 9ebe
000002a0: 0a43 d8bd f78e 3f3f 3c90 1e3f c8c9 dbbc
000002b0: 0512 f2be 8afd bfbd 0a22 cc3d c260 26be
000002c0: b868 93bf adbc 7b3d 2375 d0c0 73e5 aa3e
000002d0: af47 e4bc 3a13 a2bd 91c6 743e 1742 49bd
000002e0: a49c b93d 181c 2ebe fbad 2dbd 50db 19be
000002f0: e7db 6c3d 2fea 50be 5343 18be b5a7 3fbe
00000300: e718 43be ea4f bdbe 685a 77be 8007 f83d
00000310: 9039 913c 7b53 a1be afb2 673b ed75 37be
00000320: cf9f 7ebe 32a7 23bd 1d98 fa3d 4792 a7be
00000330: 259c d93d 6ccd 19be a15f f53c 9a21 fc3d
00000340: 72d2 83bc 6a1b a2bd 48a9 57be 53d1 81c0
00000350: 7035 3cbd 8715 adbb 4663 1e3e 9353 74be
00000360: 297c 5abe 0dc4 aa3d 02e8 ffbd f997 633e
00000370: c2f8 d7bd a861 1cbe a071 3f3c e687 973f
00000380: fdf6 8abe 2017 0a3e d16a ebbd 71f9 2c3f
00000390: f34e 113e 2e76 4d3f 1b97 e83f 2a29 933f
000003a0: 4195 aabd a448 a93f 7026 02bd 289b 1ebe
000003b0: 4cef a93f 838f 05c0 e4a4 12bc f976 d53f
000003c0: fdbb 553b c4c9 0dbf dcd5 88be 2542 abbd
000003d0: 9310 463d bdf9 f9be f2ea 4fbe ff0c e53d
000003e0: d2ef 90be 392a 023e b79c 823e d3ea 09bd
000003f0: 5ab5 51bc 7cc7 0abf 8e0a 1ebe 9091 66be

sequential_1/dense_5/MatMul f4 [30, 50]
-0.15451732 -0.015126882 0.249378 0.1717244 -0.15634619 -0.23431855 -0.058248565 -0.14451738
-0.21167402 0.08204287 0.20430796 0.055072606 -0.27706426 -0.2568564 0.20015714 -0.19037709
-0.0952519 -0.14752084 0.01210259 -0.037553765 -0.22735633 0.1939053 -0.2557659 0.120095626
0.09840496 0.2506782 0.04402155 0.20080712 -0.009765914 0.01687609 0.104131825 0.2171569
-0.1369577 -0.10596083 -0.048298538 0.09290144 -0.15312798 -0.028669428 -0.19372837 0.24815445
0.042640388 -0.021214189 -0.20393802 -0.08138333 0.22684203 -0.13413714 -0.3106346 0.26977867
-0.16885178 0.17501642 -0.14138663 0.055348244 0.059852287 0.077169076 -0.26471466 -0.27006766
0.039234303 -0.1454414 -0.26743522 0.21634422 -0.17220484 0.25970766 -0.02379837 0.31656483
-0.1845981 -0.44929153 0.19505253 -0.32363698 -0.16609131 -0.22022785 -0.24825843 -0.18455653
-0.16757987 0.20649283 0.018904148 -0.13738436 -0.47477093 -0.20051295 -0.14696464 -0.0033182737
0.11103153 -0.36513776 0.13025442 0.10347665 0.0923405 0.07090323 0.17803808 -0.07449051
-0.17000847 0.04948327 -0.1058786 0.21070787 -0.118922606 -0.20905024 -0.12493251 -0.18458048
0.03694134 0.12631209 -0.0019000669 0.2385332 0.12538806 0.0644265 0.036475766 0.21494135
-0.14705534 0.013130098 0.22302563 -0.05745091 -0.061052613 0.13487238 0.14292814 0.20322983
-0.27828708 0.049903005 -0.19498065 0.13341925 0.26855892 -0.019428613 -0.0407046 -0.3124005
0.049429797 0.14607511 -0.015474169 -0.11761245 -0.052352704 -0.00062957685 -0.16479543 -0.14505376
-0.18251526 -0.06491237 -0.16865833 -0.068867065 -0.13562441 0.058708403 0.042302042 0.14915015
0.10257497 -0.03548256 0.1693713 0.086658694 -0.14198261 0.19301495 -0.30108765 0.03956323
0.120424725 0.0775658 0.1676676 0.23764825 -0.05977416 -0.1560017 -0.16396846 0.051651683
0.022250123 -0.25787994 0.10791162 0.47316536 0.136274 0.001396903 -0.03730988 0.43717965
-0.07403982 -0.2008083 0.014312865 0.19789337 0.20935088 -0.3732768 -0.24127564 0.2264746
-0.10918193 -0.2655977 0.1173159 -0.39131016 -0.20885329 0.23855714 -0.27226225 -0.03544522
-0.13886768 0.19853853 -0.35858756 -0.19968235 0.0059539047 -0.15537487 0.03834464 -0.25856546
-0.2939338 -0.19870415 -0.07553174 0.21391873 0.14842325 -0.13543364 -0.037742358 0.04962312
-0.35619956 -0.05257634 -0.12215782 0.12652618 -0.16356328 0.0067506162 0.11029433 -0.1252051
-0.085985176 0.19506997 -0.23343179 0.23987544 -0.40864855 0.07950068 -0.14662956 -0.21003938
-0.1368798 -0.026991548 0.12362695 -0.13532683 0.113197654 0.059677124 -0.16033927 0.12685643
0.10460031 -0.35452837 -0.21731538 -0.2815922 0.22189505 -0.28334033 -0.056652144 -0.13903213
-0.045680836 -0.15140566 0.24202976 -0.12095159 -0.20589727 -0.2599115 -0.16291492 0.21720211
-0.085414395 -0.18632151 -0.19729629 0.13237047 -0.040910825 -0.090811804 0.23811641 -0.21429797
0.2500441 -0.048646495 0.26149166 0.015389442 0.060829137 -0.15799858 -0.20283072 0.1796191
0.29390725 -0.11768992 -0.017517418 -0.04981466 0.13964 -0.15998094 0.9547387 2.0120528
00000000: ca39 1ebe bed6 77bc f25c 7f3e 85d8 2f3e
00000010: 3719 20be 34f1 6fbe 0c96 6ebd 5dfc 13be
00000020: 13c1 58be 1806 a83d 1b36 513e d093 613d
00000030: 5edb 8dbe af82 83be fef5 4c3e 36f2 42be
00000040: 6e13 c3bd b40f 17be f149 463c fad1 19bd
00000050: 19d0 68be 1c8f 463e bff3 82be b2f4 f53d
00000060: 8a88 c93d e558 803e f14f 343d 62a0 4d3e
00000070: 3601 20bc ba3f 8a3c 1143 d53d 615e 5e3e
00000080: a43e 0cbe fe01 d9bd b0d4 45bd 1c43 be3d
00000090: 95cd 1cbe 26dc eabc bb60 46be 331c 7e3e
000000a0: b0a7 2e3d 61c9 adbc 21d5 50be 4eac a6bd
000000b0: 4749 683e 3f5b 09be 800b 9fbe 6e20 8a3e
000000c0: 7be7 2cbe 8137 333e a8c7 10be d7b4 623d
000000d0: ac27 753d d20a 9e3d ae88 87be 4f46 8abe
000000e0: 26b4 203d 97ee 14be 45ed 88be 5789 5d3e
000000f0: 7756 30be 67f8 843e cdf4 c2bc c914 a23e
00000100: 4907 3dbe 8a09 e6be dabb 473e bfb3 a5be
00000110: d713 2abe 6983 61be 7537 7ebe 63fc 3cbe
00000120: 0f9a 2bbe db72 533e dfdc 9a3c 7cae 0cbe
00000130: 2d15 f3be 4453 4dbe e67d 16be 6577 59bb
00000140: 8064 e33d 56f3 babe 6a61 053e 91eb d33d
00000150: 041d bd3d b635 913d 9d4f 363e 7b8e 98bd
00000160: b316 2ebe f8ae 4a3d e1d6 d8bd cec3 573e
00000170: b28d f3bd 4411 56be 9edc ffbd aa02 3dbe
00000180: cd4f 173d f557 013e aa0b f9ba 0c42 743e
00000190: ba65 003e 0af2 833d 9d67 153d 9619 5c3e
000001a0: ad95 16be 9f1f 573c d560 643e a551 6bbd
000001b0: 4e12 7abd fc1b 0a3e c15b 123e 7b1b 503e
000001c0: a57b 8ebe 1867 4c3d 02a9 47be 0e9f 083e
000001d0: 8e80 893e c128 9fbc deb9 26bd f5f2 9fbe
000001e0: e676 4a3d b794 153e 5e87 7dbc ccde f0bd
000001f0: ca6f 56bd 300a 25ba 22c0 28be f988 14be
00000200: 48e5 3abe c7f0 84bd c5b4 2cbe 2d0a 8dbd
00000210: 20e1 0abe 3978 703d e844 2d3d d1ba 183e
00000220: d312 d23d 2956 11bd ac6f 2d3e 1d7a b13d
00000230: e463 11be b6a5 453e 2928 9abe 0e0d 223d
00000240: 3da1 f63d d1da 9e3d 0eb1 2b3e 105a 733e
00000250: c0d5 74bd e9be 1fbe 59e7 27be b790 533d
00000260: e445 b63c d708 84be c400 dd3d bb42 f23e
00000270: 698b 0b3e 4918 b73a 3fd2 18bd 03d6 df3e
00000280: 30a2 97bd b1a0 4dbe 8280 6a3c 8fa4 4a3e
00000290: 1460 563e 231e bfbe f610 77be f5e8 673e
000002a0: c79a dfbd 6cfc 87be 5243 f03d ce59 c8be
000002b0: a3dd 55be 5348 743e f565 8bbe 022f 11bd
000002c0: 5433 0ebe af4d 4b3e ca98 b7be 8879 4cbe
000002d0: f918 c33b 971a 1fbe 450f 1d3d b162 84be
000002e0: 7e7e 96be 1a79 4bbe 63b0 9abd 830d 5b3e
000002f0: 44fc 173e 1eaf 0abe bb97 1abd 9d41 4b3d
00000300: ca5f b6be 4a5a 57bd e12d fabd 1490 013e
00000310: 227d 27be 4634 dd3b fee1 e13d c435 00be
00000320: ff18 b0bd 6cc0 473e be08 6fbe e8a1 753e
00000330: 623a d1be 41d1 a23d 0f26 16be 9014 57be
00000340: 382a 0cbe 611d ddbc 2030 fd3d 1e93 0abe
00000350: 2cd4 e73d 0070 743d fa2f 24be a7e6 013e
00000360: b038 d63d be84 b5be ec87 5ebe da2c 90be
00000370: 7538 633e fc11 91be 140c 68bd 705e 0ebe
00000380: d41b 3bbd 160a 1bbe a6d6 773e 78b5 f7bd
00000390: bcd6 52be 1f13 85be 2bd3 26be 3b6a 5e3e
000003a0: beed aebd 11cb 3ebe 0a08 4abe 208c 073e
000003b0: 1c92 27bd 8afb b9bd cad4 733e ed70 5bbe
000003c0: c805 803e 8c41 47bd 3ce2 853e 0024 7c3c
000003d0: f927 793d 61ca 21be dbb2 4fbe 12ee 373e
000003e0: 037b 963e 6a07 f1bd b080 8fbc 750a 4cbd
000003f0: cafd 0e3e 0bd2 23be c169 743f 79c5 0040

sequential_1/dense_6/MatMul f4 [15, 30]
0.30454296 0.247716 0.288532 0.19191818 -0.12530915 -0.04972524 0.23720463 -0.2016104
-0.22432949 -0.115263306 -0.20352821 -0.07172349 -0.01094746 -0.031320058 -0.25969866 -0.24025287
-0.01784137 0.032313578 0.071917266 -0.06689444 -0.05615495 0.050198257 -0.13476336 -0.14965771
0.052088756 0.1905123 -0.1358299 0.022165013 -0.034352936 -0.26179412 0.13085145 -0.4739101
-0.015175774 -0.4277977 0.06869618 -0.43443388 -0.23489831 -0.59016603 0.19317922 -0.116674066
-0.20238727 -0.22132364 -0.13339402 -0.042553954 0.35574436 0.34202194 0.1617023 0.21946098
0.010184255 -0.064142704 -0.053060804 -0.1883419 -0.3032886 -0.025339605 -0.08063303 0.13425155
-0.17569658 -0.22853516 0.35225388 -0.2536219 0.10273297 0.22599599 -0.34638697 0.31344628
-0.1991956 -0.17159528 0.27365348 -0.2177196 0.123669274 -0.3817508 0.14111327 -0.18851188
-0.030478312 -0.2818492 -0.2347652 0.35006973 -0.24460024 -0.016982257 -0.14875765 -0.17757957
0.29113325 0.31078973 -0.044285763 0.03822066 0.13953331 -0.35756925 -0.17790586 -0.34016448
-0.30301994 -0.11179678 0.40982735 0.16136692 0.13612571 -0.004213911 0.084517494 -0.21330975
-0.10708541 -0.14487493 -0.18800803 -0.42828208 -0.069865175 -0.05563035 -1.532687 -0.76733285
0.18629323 -0.13828917 0.18104865 0.044170976 0.17056917 -0.059254043 0.10787389 0.2352357
-0.112747446 -0.17208551 -0.17145655 0.074014746 -0.063673325 -0.092141 0.021732513 0.07441365
-0.23258084 0.32010415 0.11060056 0.21997942 0.030696226 -0.1993865 -0.30813926 -0.32924613
0.023479812 0.27853736 -0.44836327 -0.27869216 -1.0350735 -1.1285996 -0.16063058 0.14152937
-0.10055447 -0.16968676 0.26161912 0.09931938 -0.17870767 -0.08952411 -0.37165514 0.24433401
0.26173154 -0.16266897 0.118327975 0.2448993 0.05696648 -0.07191611 0.0061562373 0.30614066
0.15702881 -0.10433682 -0.31309977 -0.10615703 -0.26580623 -0.04457233 0.26741156 0.09495934
0.097586505 0.23681489 -0.13742492 -0.12504408 -0.33737987 -0.22071798 -0.15179478 -0.3625933
-0.25100878 -0.33634502 -0.16478273 -0.015943626 -0.27799764 0.1634551 -0.34884724 -0.0897209
0.13066222 0.26622453 0.11223681 0.22787908 -0.04736132 0.08874918 -0.20326546 -0.014029655
-0.18022397 0.46207187 -0.18692155 -0.027170986 -0.113795534 -0.29392207 0.17570536 0.29697365
-0.09418824 -0.6033588 0.20639025 0.0627999 0.32059515 0.16873671 0.055854876 -0.19279844
-0.35044947 -0.19040632 -0.12284308 0.11203162 -0.19400601 -0.32779703 -0.055057157 -0.047885034
-0.0022917388 0.30291504 -0.27985847 -0.17870548 0.29042622 -0.38354537 0.29525602 -0.1116016
0.047120064 0.057585243 -0.35071468 0.015620488 -0.2064075 -0.080889516 0.009962007 0.11442948
0.3505394 -0.10266054 0.05409888 -0.22676463 0.28933448 0.16018899 -0.0674713 0.21757801
-0.027389795 0.0022302242 0.06526393 -0.23736702 0.02546611 0.035296947 -0.15319058 0.27733713
0.23146212 0.20687413 -0.2012902 -0.35910904 0.1831693 -0.45651215 -0.15169178 0.01714158
-0.17575796 -0.2882243 -0.22102141 0.19279893 -0.106605425 -0.34818527 0.2279523 0.34183282
00000000: 0eed 9b3e 43a9 7d3e 77ba 933e 3386 443e
00000010: 0b51 00be b1ac 4bbd c5e5 723e f572 4ebe
00000020: a1b6 65be 2b0f ecbd b369 50be c4e3 92bd
00000030: fa5c 33bc 7649 00bd 39f7 84be d904 76be
00000040: 1128 92bc 3e5b 043d 5c49 933d f4ff 88bd
00000050: bc02 66bd b09c 4d3d 68ff 09be df3f 19be
00000060: 055b 553d a815 433e fe16 0bbe 6793 b53c
00000070: aab5 0cbd e109 86be ecfd 053e 58a4 f2be
00000080: cfa3 78bc 4d08 dbbe 95b0 8c3d 1e6e debe
00000090: 2f89 70be 1f15 17bf c6d0 453e d0f2 eebd
000000a0: 9c3e 4fbe aaa2 62be 7198 08be 0e4d 2ebd
000000b0: 2024 b63e 801d af3e 4a95 253e 61ba 603e
000000c0: dddb 263c 405d 83bd 4956 59bd b3dc 40be
000000d0: a548 9bbe 0195 cfbc ee22 a5bd 3d79 093e
000000e0: cee9 33be 1f05 6abe 9f5a b43e bbda 81be
000000f0: aa65 d23d 7e6b 673e a259 b1be 087c a03e
00000100: eef9 4bbe acb6 2fbe 4f1c 8c3e e3f1 5ebe
00000110: 5146 fd3d d774 c3be ff7f 103e 4209 41be
00000120: a7ad f9bc 8a4e 90be 4a66 70be 573c b33e
00000130: 7c78 7abe 601e 8bbc ed53 18be 6bd7 35be
00000140: 6b0f 953e d51f 9f3e fd64 35bd 448d 1c3d
00000150: d2e1 0e3e 5113 b7be f42c 36be 0a2a aebe
00000160: 6e25 9bbe b6f5 e4bd e4d4 d13e 5f3d 253e
00000170: 8a64 0b3e d914 8abb 8217 ad3d df6d 5abe
00000180: 984f dbbd 185a 14be 2d85 40be ca47 dbbe
00000190: 7915 8fbd a6dc 63bd 162f c4bf ed6f 44bf
000001a0: a7c3 3e3e ad9b 0dbe d164 393e a0ec 343d
000001b0: afa9 2e3e 5eb4 72bd fcec dc3d a1e1 703e
000001c0: 22e8 e6bd 2f37 30be 4e92 2fbe 0b95 973d
000001d0: 2967 82bd 6cb4 bcbd 6208 b23c 2f66 983d
000001e0: ac29 6ebe b1e4 a33e 8c82 e23d 4942 613e
000001f0: a776 fb3c fa2b 4cbe 6ec4 9dbe f392 a8be
00000200: bc58 c03c 739c 8e3e df8f e5be bdb0 8ebe
00000210: 4a7d 84bf f475 90bf 587c 24be 13ed 103e
00000220: 81ef cdbd 5ec2 2dbe f1f2 853e f667 cb3d
00000230: 25ff 36be 6b58 b7bd 9549 bebe b232 7a3e
00000240: ad01 863e b292 26be f055 f23d e2c6 7a3e
00000250: af55 693d c148 93bd 43ba c93b 78be 9c3e
00000260: 29cc 203e 8bae d5bd 9d4e a0be db68 d9bd
00000270: c117 88be 7a91 36bd 2bea 883e 0b7a c23d
00000280: 6fdb c73d 9a7f 723e 1eb9 0cbe 8e0b 00be
00000290: 0ebd acbe e503 62be 1770 1bbe d4a5 b9be
000002a0: 3984 80be 6a35 acbe cebc 28be 359c 82bc
000002b0: b555 8ebe c660 273e 1b9c b2be 97bf b7bd
000002c0: 51cc 053e 954e 883e 6adc e53d 2259 693e
000002d0: f2fd 41bd 21c2 b53d d224 50be a3dc 65bc
000002e0: a28c 38be af94 ec3e 5d68 3fbe b095 debc
000002f0: a20d e9bd f47c 96be 1bec 333e ee0c 983e
00000300: c4e5 c0bd b975 1abf f757 533e 3c9d 803d
00000310: 0c25 a43e 51c9 2c3e 15c8 643d f46c 45be
00000320: 1d6e b3be e0f9 42be 2795 fbbd d670 e53d
00000330: 83a9 46be 03d5 a7be 9d83 61bd 1923 44bd
00000340: ff30 16bb ae17 9b3e 9c49 8fbe 92fe 36be
00000350: bfb2 943e 0f60 c4be cc2b 973e 618f e4bd
00000360: f800 413d 81de 6b3d e090 b3be 13ed 7f3c
00000370: 7d5c 53be 67a9 a5bd b037 233c 015a ea3d
00000380: e679 b33e b03f d2bd ca96 5d3d fd34 68be
00000390: a623 943e 9508 243e 652e 8abd c5cc 5e3e
000003a0: 9060 e0bc f428 123b 18a9 853d 5710 73be
000003b0: 4e9e d03c 8893 103d fedd 1cbe 22ff 8d3e
000003c0: 6804 6d3e d0d6 533e 051f 4ebe 24dd b7be
000003d0: bc90 3b3e f6bb e9be 1755 1bbe 806c 8c3c
000003e0: e5f9 33be 2392 93be 7053 62be 156d 453e
000003f0: f253 dabd 5745 b2be 546c 693e b604 af3e

sequential_1/dense_7/MatMul f4 [1, 15]
0.0007325587 -0.028996844 -0.3367048 0.007567022 0.008853297 -0.07678211 0.7274571 -0.348368
-0.47818467 0.02548912 0.029153388 -0.07050078 0.89571 0.38399053 -0.20852688
00000000: 2f09 403a ca8a edbc 9264 acbe c8f4 f73b
00000010: 6b0d 113c f03f 9dbd a13a 3a3f 4a5d b2be
00000020: 9fd4 f4be 8fce d03c 16d3 ee3c b762 90bd
00000030: 404d 653f 689a c43e 1288 55be

sequential_1/lstm_1/while/lstm_cell/BiasAdd/ReadVariableOp f4 [120]
-0.2978913 0.35581085 -0.15183209 -0.039637137 -0.076107435 -0.9840885 -0.38715398 -0.47807673
-0.23337542 -0.27868775 -0.031135084 -0.3517252 -0.06573821 -1.9581798 -0.16745773 0.0
-0.030023856 1.194635 -0.43340966 -0.1182525 -0.10691612 -0.0067380657 -0.90017563 0.32400483
-0.31782848 -0.021279136 -1.0278252 0.0344034 -2.161809 -0.9286282 1.0 1.0
1.0 1.0 1.0 1.0 1.0 1.0 1.0 1.0
1.0 1.0 1.0 1.0 1.0 1.0 1.0 1.0
1.0 1.0 1.0 1.0 1.0 1.0 1.0 1.0
1.0 1.0 1.0 1.0 -0.18847723 -0.32504964 -0.08547005 -0.05990863
-0.023544647 -0.5129571 -0.26619905 -0.2113174 -0.16727959 -0.06766288 -0.031222057 -0.16401723
-0.10687667 -1.0557946 -0.066838495 0.0 -0.048617456 -0.043708 -0.20719567 -0.33970013
-0.40645722 0.6920443 -0.17360394 -0.7529062 -0.18708107 -0.02073466 -1.1083583 0.18415089
-2.0115962 1.407514 -0.29555503 0.52729845 -0.15053461 -0.040508244 -0.07615443 -1.0693454
-0.3946908 -0.4676958 -0.21872398 -0.2833667 -0.031104347 -0.34610948 -0.065007724 -1.7712437
-0.169694 0.0 -0.030150866 1.3134445 -0.4405708 -0.17586583 -0.16799508 0.1311373
-1.0701114 0.28155467 -0.32724804 -0.019713202 -0.8851251 0.034899227 -2.6649463 -0.8344553
00000000: 3585 98be d72c b63e df79 1bbe 8d5a 22bd
00000010: 37de 9bbd 39ed 7bbf 0c39 c6be 79c6 f4be
00000020: f7f9 6ebe 29b0 8ebe 010f ffbc 5315 b4be
00000030: c1a1 86bd a3a5 fabf 0a7a 2bbe 0000 0000
00000040: 97f4 f5bc cde9 983f dfe7 ddbe 5e2e f2bd
00000050: d7f6 dabd feca dcbb e971 66bf f6e3 a53e
00000060: 6aba a2be 9551 aebc c78f 83bf 94ea 0c3d
00000070: 145b 0ac0 94ba 6dbf 0000 803f 0000 803f
00000080: 0000 803f 0000 803f 0000 803f 0000 803f
00000090: 0000 803f 0000 803f 0000 803f 0000 803f
000000a0: 0000 803f 0000 803f 0000 803f 0000 803f
000000b0: 0000 803f 0000 803f 0000 803f 0000 803f
000000c0: 0000 803f 0000 803f 0000 803f 0000 803f
000000d0: 0000 803f 0000 803f 0000 803f 0000 803f
000000e0: 0000 803f 0000 803f 0000 803f 0000 803f
000000f0: 2d00 41be e86c a6be ec0a afbd c062 75bd
00000100: b4e0 c0bc 2851 03bf 3e4b 88be 9763 58be
00000110: 574b 2bbe d692 8abd 66c5 ffbc 22f4 27be
00000120: 28e2 dabd 4724 87bf 9fe2 88bd 0000 0000
00000130: 1923 47bd 2907 33bd 1a2b 54be 2ded adbe
00000140: 291b d0be d129 313f 3bc5 31be 76be 40bf
00000150: 2e92 3fbe bcdb a9bc afde 8dbf 0d92 3c3e
00000160: febd 00c0 6b29 b43f fd52 97be 08fd 063f
00000170: bf25 1abe f9eb 25bd dbf6 9bbd 4fe0 88bf
00000180: ea14 cabe d375 efbe 2ef9 5fbe 7115 91be
00000190: 8bce febc 4335 b1be c522 85bd 1db8 e2bf
000001a0: 44c4 2dbe 0000 0000 f3fe f6bc f31e a83f
000001b0: 7f92 e1be 2c16 34be e706 2cbe db48 063e
000001c0: 69f9 88bf ef27 903e 0e8d a7be 957d a1bc
000001d0: 8f97 62bf 7ef2 0e3d 7b8e 2ac0 dd9e 55bf

sequential_1/lstm_1/while/lstm_cell/MatMul_11 f4 [120, 30]
-0.01527977 0.047611535 0.054950267 -0.053047456 0.019239731 -0.041410577 -0.12923087 -0.04326049
0.06883179 0.06141723 0.015177017 0.016056053 -0.013487141 0.027405953 0.18142444 -0.016592572
-0.08251111 -0.01902983 0.13545646 -0.11051919 0.04962858 0.036957275 0.11386541 -0.070289366
-0.19132462 -0.067773014 0.07331274 -0.15182725 -0.01163807 0.11428405 -0.060297515 -0.04659318
-0.006810738 0.030709358 -0.09689655 0.101167455 0.09952814 -0.29486927 -0.05005569 -0.02448547
-0.024274407 -0.053614102 -0.021267362 0.07268593 -0.055989154 0.105441116 0.12146458 0.09564624
0.0072173914 -0.0057984134 -0.026317803 0.02587545 0.082734 0.029339332 0.08275913 0.07003753
-0.009609697 0.03275461 -0.08663316 0.13690792 -0.031726357 0.02866093 0.012593817 0.0090563595
-0.040879235 0.067347296 -0.06578876 -0.05914416 -0.030698534 0.1295324 -0.0094341785 -0.016930882
0.003568824 -0.04181026 -0.071593784 -0.14786582 0.10019053 -0.11265459 -0.06780597 0.037495226
0.27230036 0.14396106 -0.21295545 0.05806987 -0.0416465 -0.107504725 -0.09666849 0.004888791
-0.027026843 0.13079335 -0.004046097 -0.23416984 0.020107634 -0.04394025 0.052147828 -0.0082909325
-0.108509704 0.11901376 -0.11664928 -0.06810409 -0.044204064 -0.09571401 0.013285881 -0.09935302
0.1595464 -0.009682636 0.078689136 0.09725716 0.16599312 0.11535824 -0.023582295 0.05520154
-0.13876358 0.1411019 -0.04994979 -0.1325018 -0.014921022 -0.051857695 0.0774049 -0.07491373
0.04921902 0.06289218 -0.09369525 0.1560525 0.15971619 0.13939992 0.14770737 -0.024789162
-0.11051919 0.037108175 -0.056087367 -0.01683398 -0.19509198 -0.14813602 0.022640858 -0.030608632
0.069664374 -0.07764001 -0.020662563 0.11197513 0.104456216 -0.16479434 0.042871904 0.20248647
0.020672748 0.07738384 -0.10114163 -0.07135091 -0.06887175 -0.09535243 0.06395374 -0.0463596
0.045986462 0.00014938484 -0.17139159 -0.014910137 -0.10402649 -0.15786879 0.01589602 -0.022206618
0.042598173 -0.04253705 -0.025135472 0.12705773 -0.17721343 0.040946763 0.015130166 0.27531776
0.074655324 0.054082364 0.005739885 0.013323999 0.04722148 -0.030765112 0.01763943 0.015087662
0.056692652 -0.032163676 0.07642166 0.07069057 -0.044348866 0.050960995 0.041472025 -0.0051078806
-0.046813283 -0.031953417 0.014302485 0.007934708 0.06156215 0.06991345 -0.092520684 -0.049761765
0.08694829 -0.31100324 0.05377697 -0.029466918 -0.011443634 -0.049281243 -0.12043599 -0.07185887
0.03737769 0.06992225 -0.061120566 -0.039870262 -0.11799119 -0.10739072 0.11345503 0.06303644
0.002736532 -0.21052933 0.11554026 -0.17816961 -0.034934938 0.02571558 -0.079217665 0.03120824
0.055624038 -0.14446402 0.077654734 0.1560354 0.1045173 0.09608367 -0.06039095 -0.06939999
0.06136141 -0.047073085 0.04004914 -0.052769266 0.037755817 -0.016582673 -0.03165942 -0.05967348
0.019376323 -0.03592654 -0.13465804 0.02289242 -0.05564261 0.05480708 -0.08517337 -0.025788518
0.032808453 0.111534536 -0.07575857 -0.15182284 0.037648648 -0.07717663 0.033595018 -0.023794044
0.048604384 -0.06969679 0.02889301 -0.1673995 -0.09202136 -0.05525328 -0.08444628 -0.026698869
00000000: 0058 7abc 5004 433d 8813 613d 4a48 59bd
00000010: a49c 9d3c 239e 29bd 1955 04be e931 31bd
00000020: aef7 8c3d a290 7b3d 06a9 783c fc87 833c
00000030: 2bf9 5cbc 7382 e03c 54c7 393e 25ed 87bc
00000040: 96fb a8bd 72e4 9bbc 19b5 0a3e e357 e2bd
00000050: 5747 4b3d 8360 173d 4532 e93d dff3 8fbd
00000060: 9aea 43be 94cc 8abd fd24 963d 9a78 1bbe
00000070: 9bad 3ebc c20d ea3d 87fa 76bd 7ed8 3ebd
00000080: 9c2c dfbb 3192 fb3c b371 c6bd e230 cf3d
00000090: 69d5 cb3d 1bf9 96be 3207 4dbd c195 c8bc
000000a0: 1fdb c6bc 769a 5bbd e438 aebc 5cdc 943d
000000b0: e254 65bd 83f1 d73d 6cc2 f83d 2de2 c33d
000000c0: de7f ec3b 9e00 bebb 6f98 d7bc c0f8 d33c
000000d0: 7270 a93d 0a59 f03c 9e7d a93d d66f 8f3d
000000e0: fe71 1dbc b329 063d ba6c b1bd 9731 0c3e
000000f0: 7ff3 01bd 54ca ea3c 4c56 4e3c 2061 143c
00000100: fc70 27bd 61ed 893d 42bc 86bd 2641 72bd
00000110: 7e7b fbbc 24a4 043e d091 1abc a2b2 8abc
00000120: eee2 693b 3c41 2bbd c39f 92bd 236a 17be
00000130: b130 cd3d 73b7 e6bd dbdd 8abd 9894 193d
00000140: f46a 8b3e 876a 133e fe10 5abe acda 6d3d
00000150: 8595 2abd 702b dcbd 21fa c5bd 2732 a03b
00000160: 6667 ddbc b1ee 053e 1f95 84bb 38ca 6fbe
00000170: c4b8 a43c b1fa 33bd f698 553d b1d6 07bc
00000180: 563a debd 7cbd f33d d1e5 eebd 287a 8bbd
00000190: 520f 35bd b505 c4bd 06ad 593c 9979 cbbd
000001a0: 2260 233e eba3 1ebc c527 a13d c32e c73d
000001b0: 1afa 293e f140 ec3d a82f c1bc 031b 623d
000001c0: 0a18 0ebe 047d 103e 2798 4cbd 8dae 07be
000001d0: 4d77 74bc bc68 54bd 7686 9e3d 5f6c 99bd
000001e0: e299 493d 9ecd 803d 4ce3 bfbd 3acc 1f3e
000001f0: a48c 233e dabe 0e3e 9a40 173e a412 cbbc
00000200: e357 e2bd befe 173d debb 65bd 6ae7 89bc
00000210: 31c6 47be f8b0 17be 5279 b93c f4be fabc
00000220: 32ac 8e3d ba01 9fbd 8944 a9bc 3853 e53d
00000230: 24ed d53d d9bf 28be 739a 2f3d 9d58 4f3e
00000240: e559 a93c 6b7b 9e3d 5823 cfbd 6d20 92bd
00000250: a20c 8dbd 2348 c3bd 2efa 823d 90e3 3dbd
00000260: 4d5c 3c3d 30a4 1c39 4781 2fbe a649 74bc
00000270: d70b d5bd 5ba8 21be 5f38 823c a7ea b5bc
00000280: 6c7b 2e3d 543b 2ebd e8e8 cdbc 6c1b 023e
00000290: 7077 35be cbb7 273d 84e4 773c 73f6 8c3e
000002a0: e4e4 983d 7885 5d3d a515 bc3b e74c 5a3c
000002b0: 506b 413d 1e07 fcbc 9180 903c 3e32 773c
000002c0: 8e36 683d 0fbe 03bd f682 9c3d 38c6 903d
000002d0: 28a7 35bd 7abc 503d 92de 293d 0260 a7bb
000002e0: 49bf 3fbd 96e1 02bd f854 6a3c 9400 023c
000002f0: 9828 7c3d c82e 8f3d 7c7b bdbd fed2 4bbd
00000300: f211 b23d d13b 9fbe 3d45 5c3d 9b64 f1bc
00000310: 147e 3bbc 21db 49bd 25a7 f6bd be2a 93bd
00000320: 5919 193d 6633 8f3d 8f59 7abd 004f 23bd
00000330: 5da5 f1bd aaef dbbd 1c5b e83d 4019 813d
00000340: 6357 333b 0095 57be 5fa0 ec3d 1872 36be
00000350: f017 0fbd 7ba9 d23c df3c a2bd 6ca8 ff3c
00000360: 08d6 633d 60ee 13be 7209 9f3d bec7 1f3e
00000370: 2b0d d63d 84c7 c43d 805c 77bd 9521 8ebd
00000380: 1a56 7b3d b5cf 40bd 910a 243d 9624 58bd
00000390: d8a5 1a3d 63d8 87bc 4fad 01bd 2e6c 74bd
000003a0: 18bb 9e3c b527 13bd cce3 09be e288 bb3c
000003b0: 81e9 63bd 647d 603d 606f aebd 7142 d3bc
000003c0: 2862 063d 386c e43d 4f27 9bbd 7277 1bbe
000003d0: 7835 1a3d c80e 9ebd ee9a 093d baeb c2bc
000003e0: 6415 473d 31bd 8ebd 09b1 ec3c c66a 2bbe
000003f0: b275 bcbd 4351 62bd 2cf2 acbd 96b7 dabc

sequential_1/lstm_1/while/lstm_cell/MatMul f4 [120, 12]
-0.30847043 -0.50044817 0.21183763 -0.0045693205 -0.15660176 -0.08164785 -0.19845451 -0.21284059
0.12237027 0.13577056 -0.124300666 -0.20491512 5.754896 13.958878 7.3703513 0.3583507
8.791745 -0.13607302 3.0651984 -0.18585964 -0.12444499 -1.6547276 0.51206833 0.14570007
0.04061667 -0.026050037 -0.055597946 0.06994327 -0.2720784 -0.17072825 0.13727361 0.066237606
-0.04376495 -0.2435195 -0.10116898 -0.2861244 -0.12071782 -0.07330016 -0.11812754 0.06263694
-0.07549518 0.06049933 -0.21575812 0.002299606 0.13228694 0.12255141 -0.20710567 0.14164671
-0.25513145 -0.054614007 -0.11132886 -0.031140372 0.06080128 -0.2877579 -0.09358197 0.0016099857
-0.14799505 -0.093250245 0.03204679 -0.2706551 -1.1032445 -1.1435713 -0.16397573 -0.24344014
-0.42035723 -0.97128683 -1.7548164 -0.6879119 0.23680378 -0.3771984 -0.9975027 -0.2789806
-0.4722221 -0.33197415 -0.0005052878 -0.06723255 -0.29767475 -0.34196645 -0.40149704 -0.45274666
0.014710827 -0.00197642 -0.81296015 -0.14766803 -0.68218386 -0.5512702 0.120575145 -0.01614337
-0.17339951 -0.1539258 -0.7776444 -0.006659273 0.0015980277 0.41825044 -0.38222098 -0.3111648
-0.38846475 -0.17597711 0.26784122 -0.14068195 0.24907489 0.035719264 -0.19844852 -0.24312514
-0.15268806 0.009944003 -0.5110882 -0.28869814 -0.3277533 -0.60772103 -0.20257989 0.26966465
-0.106370166 0.124632955 -0.36675033 -0.38179326 -0.0960319 -0.3406329 -0.33421907 -0.18061423
-0.13759069 -0.23621398 -0.045262426 0.11586681 -0.097188644 -0.21026625 0.04018277 0.18527883
0.008948916 0.10018852 -0.08138492 -0.05717092 -0.28344867 -0.18314779 -0.014285039 0.02703106
-0.1308643 -0.00448157 -0.23782519 -0.6133368 -0.14917031 0.36393377 -0.5549791 -0.3308551
-0.09350613 -0.038143184 0.048332572 -0.22279659 0.19326094 -0.14085898 0.046887472 0.12985748
-0.05165331 -0.21266517 -0.18134002 -0.13038215 12.840227 9.487325 0.36500224 2.0342083
0.79921174 1.6985934 5.828784 -0.17628957 0.061594337 -1.8967093 0.7584716 -2.5790522
-0.2940038 -0.4180304 -0.08304918 0.03349724 -0.073004395 -0.21291476 -0.35484394 -0.26526225
-0.09462661 0.08792001 -0.14846314 -0.008246166 0.20596248 0.19051987 0.08361742 0.20067778
0.1638402 -0.03445016 -0.120090656 -0.1874205 -0.107552834 -0.19937347 0.094558656 0.0613209
-0.0059784306 0.15921083 0.1968056 -0.19045258 -0.06049397 -0.028896824 0.008403435 -0.040222887
-0.16218153 0.18099603 -0.050491434 0.0021422568 -0.42222416 -0.9334972 -0.23037665 -0.04664649
0.6447635 1.9177536 -0.7343073 -1.0158405 -0.16619016 2.995613 1.1788528 -1.1147871
-0.53593874 -0.35612625 0.03419333 -0.03668839 -0.10786 -0.086197115 -0.44709185 -0.19072676
0.020773593 0.4001702 -0.4139352 0.00818751 1.3924363 0.036730576 0.37191054 -0.10469142
0.2657786 0.43276173 -0.9317992 -0.9788733 0.09995624 2.891253 0.15904625 -0.6379919
3.6829238 -1.226443 -0.025295349 12.86023 -0.44390753 -3.1390872 -2.5557115 -0.11610075
-0.122786075 -0.3714412 -0.96596825 0.33659413 -11.952411 -0.061176058 0.8617982 -0.58458084
00000000: d6ef 9dbe 5f1d 00bf f7eb 583e 3dba 95bb
00000010: 365c 20be fd36 a7bd a937 4bbe e2f2 59be
00000020: 449d fa3d 7007 0b3e 5991 febd 45d5 51be
00000030: 1c28 b840 9057 5f41 ebd9 eb40 be79 b73e
00000040: fdaa 0c41 ba56 0bbe 362c 4440 fd51 3ebe
00000050: 04dd febd 1dce d3bf e916 033f 6632 153e
00000060: aa5d 263d e366 d5bc acba 63bd 6b3e 8f3d
00000070: dc4d 8bbe 63d3 2ebe 7491 0c3e 95a7 873d
00000080: e042 33bd 2d5d 79be af31 cfbd e67e 92be
00000090: e83a f7bd 651e 96bd daec f1bd cc47 803d
000000a0: 389d 9abd 25ce 773d b2ef 5cbe fdb4 163b
000000b0: 3a76 073e 3cfc fa3d 8213 54be d60b 113e
000000c0: 97a0 82be f0b2 5fbd 6300 e4bd 181a ffbc
000000d0: c30a 793d 0155 93be e7a7 bfbd 2806 d33a
000000e0: 048c 17be fcf9 bebd 7f43 033d 4e93 8abe
000000f0: 1e37 8dbf 8b60 92bf 41e9 27be 5f48 79be
00000100: 1039 d7be 41a6 78bf d39d e0bf ff1a 30bf
00000110: b17c 723e 2620 c1be 565c 7fbf 8cd6 8ebe
00000120: 18c7 f1be 84f8 a9be 4a75 04ba 38b1 89bd
00000130: d368 98be 3a16 afbe 0591 cdbe 69ce e7be
00000140: ae05 713c d386 01bb 281e 50bf 4a36 17be
00000150: 9aa3 2ebf 0b20 0dbf 1af0 f63d 1a3f 84bc
00000160: a48f 31be ba9e 1dbe b413 47bf 0836 dabb
00000170: e974 d13a ec24 d63e 78b2 c3be fe50 9fbe
00000180: dae4 c6be 5833 34be 7c22 893e ee0e 10be
00000190: 7d0d 7f3e 5d4e 123d 1736 4bbe ccf5 78be
000001a0: 425a 1cbe 2cec 223c add6 02bf 3ed0 93be
000001b0: 48cf a7be 9b93 1bbf 1a71 4fbe 7c11 8a3e
000001c0: 9ad8 d9bd 903f ff3d b3c6 bbbe 687a c3be
000001d0: 5fac c4bd 6f67 aebe c31e abbe f0f2 38be
000001e0: 93e4 0cbe 14e2 71be 1865 39bd 944b ed3d
000001f0: d70a c7bd 0950 57be b096 243d bcb9 3d3e
00000200: 799e 123c a42f cd3d 23ad a6bd 0e2c 6abd
00000210: 2f20 91be 188b 3bbe cc0b 6abc 3e70 dd3c
00000220: 4b01 06be 22da 92bb 7288 73be a403 1dbf
00000230: 1ac0 18be 8755 ba3e 1c13 0ebf d765 a9be
00000240: 2480 bfbd 073c 1cbd 60f8 453d ca24 64be
00000250: 32e6 453e 563d 10be 140d 403d 5cf9 043e
00000260: 6c92 53bd e6c4 59be 33b1 39be e682 05be
00000270: 9271 4d41 15cc 1741 93e1 ba3e 7830 0240
00000280: 2499 4c3f 826b d93f 6685 ba40 4185 34be
00000290: 584a 7c3d 5fc7 f2bf 322b 423f 310f 25c0
000002a0: ab87 96be 1508 d6be b015 aabd 6734 093d
000002b0: 5483 95bd 5406 5abe 1bae b5be 74d0 87be
000002c0: 99cb c1bd 680f b43d b906 18be ed1a 07bc
000002d0: d4e7 523e a417 433e 9c3f ab3d 7a7e 4d3e
000002e0: bac5 273e 9c1b 0dbd 17f2 f5bd 29eb 3fbe
000002f0: a944 dcbd 8f28 4cbe f8a7 c13d a02b 7b3d
00000300: b6e6 c3bb 2a08 233e 6887 493e 0006 43be
00000310: 86c8 77bd 08b9 ecbc 90ae 093c c1c0 24bd
00000320: ea12 26be 0657 393e 1bd0 4ebd 1b65 0c3b
00000330: c42d d8be acf9 6ebf dbe7 6bbe 6410 3fbd
00000340: 390f 253f f378 f53f 90fb 3bbf 1007 82bf
00000350: c12d 2abe 20b8 3f40 a6e4 963f 58b1 8ebf
00000360: 4833 09bf 2e56 b6be 4e0e 0c3d 9146 16bd
00000370: b4e5 dcbd 1d88 b0bd 39e9 e4be e04d 43be
00000380: 622d aa3c 1ce3 cc3e 51ef d3be e824 063c
00000390: 5a3b b23f cd72 163d 0f6b be3e 7568 d6bd
000003a0: 2214 883e f292 dd3e 648a 6ebf 7197 7abf
000003b0: dbb5 cc3d 4a0a 3940 05dd 223e 7053 23bf
000003c0: 06b5 6b40 16fc 9cbf 3138 cfbc 81c3 4d41
000003d0: d947 e3be cee6 48c0 c790 23c0 3bc6 edbd
000003e0: 4477 fbbd 8a2d bebe b249 77bf 1156 ac3e
000003f0: 133d 3fc1 bf93 7abd cf9e 5c3f 17a7 15bf
