notebooks/model_mlp_v1.tflite (tflite, 4648 bytes, 7 tensors)

sequential_1/dense_6/BiasAdd/ReadVariableOp f4 [10]
00000000: 7250 72bc b883 88bf dd9a a53f 872b 69be
00000010: fd88 c8bd 1d00 41be 0000 0000 3318 d1be
00000020: 13aa 583f 115b f43f
-0.0147896875 -1.0665197 1.2937886 -0.2277051 -0.097917534 -0.188477 0.0 -0.40838775
0.8463451 1.9090291

sequential_1/dense_5/BiasAdd/ReadVariableOp f4 [20]
00000000: 75fe a9bd 7db8 f1bf da7c fbbe 5166 313f
00000010: 8740 bebe 0d62 c03c e981 c0bf b27b b7bf
00000020: 1adf 88bd fbc8 0ebf e3c5 60be 771b 97bd
00000030: 1eb6 5ebc e5f9 0ebe ec8b 54be 58a7 a8bd
00000040: 2d39 843e 7b81 88be be3f 07be 329e 1abe
-0.08300487 -1.8884426 -0.49118692 0.6929675 -0.37158605 0.023484254 -1.5039645 -1.4334624
-0.06683178 -0.5577542 -0.21950488 -0.073782854 -0.013593225 -0.13962515 -0.20756501 -0.08235043
0.25824872 -0.26661286 -0.1320791 -0.15099409

sequential_1/dense_4/BiasAdd/ReadVariableOp f4 [10]
00000000: d0e3 843f 14ab 91bf b98b 45bf 2a70 47bd
00000010: 3d7b 4cbf ffdf 943f 143a 273f 7960 843e
00000020: e4a0 88bf f10f 073f
1.0382023 -1.1380334 -0.77166325 -0.048690952 -0.79875547 1.1630858 0.65322995 0.25854853
-1.06741 0.527587

sequential_1/dense_4/MatMul f4 [10, 13]
00000000: b16e 1340 9081 0640 9d06 823e 6249 353f
00000010: 0724 033f 4d43 fc3e a589 c0bf 6e21 b5bf
00000020: b349 b93f a12f 40be 1aef 76bf 47ac 16c0
00000030: 3790 c83e 18eb 9d3f 4825 2d3f 1681 d4bf
00000040: aad1 2c3f b6ba 233f 1d0e 083f 6ab7 abbe
00000050: 6074 42bf 0a03 38bf 8574 de3d 20ee 3dbc
00000060: 3aa2 7040 ec56 c5be 0341 a0c1 a946 2fbf
00000070: f1dd c9bf 5d43 2f3f 8cd0 03bf fc1d ffbe
00000080: 2c87 05bf b1c6 773f e105 bb3f 1912 a03e
00000090: 1643 a1be f8f0 9a3f a241 44bf a0d0 bf40
000000a0: 4e78 ffbd aa8c dabe aa66 f13e b014 74bf
000000b0: b48d a7be 251b f2be f809 8cbd d85b 76be
000000c0: bfcd 9cbe 75c9 43bf 8a62 f0be b98c 95bf
000000d0: ceef a03f a694 e9bb 1267 213f 3107 0e3d
000000e0: d9e7 cbbe 45cb c2be db41 163e f4f4 cabe
000000f0: c38c b63d 8193 323e 9fa3 9cbf a61c 56bf
00000100: d13b 8bbe 11a8 f2bf 7fdf e8bc cdd9 32c0
00000110: 4ce6 5d3f 1043 563f 545a 583f 84e9 afbf
00000120: 68b1 2fbf 6ca2 d3be c759 8a3d cda2 813d
00000130: e780 c03e d854 02bf 0f41 76c0 c4eb 0e40
00000140: 8f88 0ebf 9fa7 9bbf 0e5f 1fbf ea6f 103f
00000150: c9cb 243f 01c5 243f b967 8bbf 9d3d 55bd
00000160: ba91 99bf eeea 78bf 249b d13e b877 ac40
00000170: ee84 c83e 0179 6a40 ca5e 8bbf 8844 8dbf
00000180: ad21 98bf 1900 34bf eb14 e0bf 55a4 dabf
00000190: f997 9c3d 03f5 99be ae19 7fbf 8e52 ac3d
000001a0: 3a4b c540 ad57 8ac0 edd9 ac3e 252c 563f
000001b0: a904 603f 1449 433f abc8 fcbe 6c3d e0be
000001c0: 3623 bcbe bf72 563e 2f5e bbbd d68b 45c0
000001d0: 2cce 5e3e 392e bbbe 2a8b b03f 437b 08bf
000001e0: 1279 153e 705b 21bf 92f6 1abf 3460 ad3e
000001f0: a4ea 833e 9863 d93f 4f0e c93e a43d 83be
00000200: cdc5 2ac0 9133 de3e
2.303631 2.1016579 0.2539567 0.708151 0.5122685 0.49270096 -1.5042006 -1.4150827
1.4475616 -0.18768169 -0.9645859 -2.354265 0.39172527 1.233737 0.6763501 -1.6601894
0.6750742 0.63956773 0.53146535 -0.3353837 -0.75958824 -0.7187964 0.10862068 -0.011592418
3.7599015 -0.3854288 -20.031744 -0.68467194 -1.5770856 0.68462163 -0.5149009 -0.49827564
-0.5215938 0.96787554 1.4611169 0.31263807 -0.31496495 1.2104788 -0.7666265 5.994217
-0.12474118 -0.42685443 0.4714864 -0.95344067 -0.32725298 -0.47286335 -0.06837839 -0.24058473
-0.30625722 -0.76479274 -0.4695018 -1.168357 1.2573183 -0.007128316 0.630479 0.034674827
-0.39825323 -0.38045707 0.1467356 -0.3964001 0.08913567 0.17439081 -1.2237433 -0.83637464
-0.27194074 -1.895754 -0.028426884 -2.7945435 0.8667953 0.8369608 0.8451283 -1.3743138
-0.68630075 -0.41334856 0.06755405 0.0632988 0.37598345 -0.5091071 -3.8477209 2.23314
-0.5567712 -1.2160529 -0.62254417 0.5642077 0.6437345 0.64363104 -1.0891029 -0.052060712
-1.1997597 -0.97233474 0.40938675 5.389614 0.39163917 3.6636355 -1.0888302 -1.1036539
-1.1885277 -0.7031265 -1.7506384 -1.70814 0.07646174 -0.30069742 -0.9964856 0.084141836
6.165433 -4.3232026 0.33760014 0.8366111 0.8750711 0.76283383 -0.49371848 -0.4379686
-0.36745614 0.2094221 -0.091488235 -3.08666 0.21758336 -0.36558703 1.379247 -0.5331308
0.14596966 -0.6303015 -0.60532486 0.3386246 0.25764954 1.6983519 0.3926873 -0.25632966
-2.6683228 0.43398717

sequential_1/dense_5/MatMul f4 [20, 10]
00000000: 9eeb 193d 6753 fb3d d317 31c0 5e32 0740
00000010: c652 78bf 6517 8b3f 5374 46bf 1087 d9c0
00000020: 41e2 1ebd 1bfb c4bf bf4a 17bf 8720 393f
00000030: 0608 88bf 9ad1 5b3f e7f0 703e 3b89 19bf
00000040: afe1 c93f f5e3 f33e 372a 3840 c044 503f
00000050: 1eba 12be 6234 2dbf 54c4 95bf f6e6 bfbe
00000060: 5ccf 11bf 1e9b 153f 13cd 91be df1f aabe
00000070: c2b8 32bd 8d06 6abf 7ef6 ae3e 86fc eabf
00000080: 101c 50be 2a61 8dbf 71f6 50bf 9785 ffbd
00000090: 4d10 8f3e 190b 2fc0 354c 93be a038 dd3e
000000a0: f290 0c3f b488 a43e 0c12 8ebf 9f0e a03f
000000b0: 5983 b23e c581 5140 7adb cd3e c796 e1bc
000000c0: 0e98 b9c0 d5f7 05bf e818 5e3f 06b7 abbe
000000d0: e2b5 b8bd 1dc1 233f 239e 443e e1c6 0040
000000e0: 2599 053f 185f 973f 8dc2 a3bf 0244 2ebf
000000f0: 3f6a eabe de61 dcbf 8a3e ed3f 243d 103f
00000100: d2db 13bd 5b11 2140 cbd8 4bbe ad2a 8e3f
00000110: d283 ef3f 9edd 9dbf d25a 7a3f 05d2 abbf
00000120: 2229 483e f3ca a23f 83fa a1be 609c d33f
00000130: f53a b13f b127 36c0 a0e1 fbbe ab66 eebf
00000140: 9bba 77be 72b3 c4be 32b8 f5bd 27e0 b5bd
00000150: 6c6d e2bd 6516 b3be 4c28 83be ffdd a93c
00000160: fe13 4abe 1ef5 84bd 2ad5 a23e 09a8 00c0
00000170: 42e7 8bbf 485d eebe 455d 273f 4047 8bbf
00000180: e91a dfbe 6e34 9a3f de7f 31c0 19f8 7fbf
00000190: cc09 97be 61e6 f4bd 9c50 bdbc 5f83 bd3e
000001a0: 4847 293f 877e a5bd b48a 633d e389 9dbd
000001b0: 619b 063f 0ac6 68bd f84d ddbe d250 81be
000001c0: b4a8 be3c 6834 b6be adec 3f3d c025 5cbd
000001d0: 12e0 89be 2e09 f1bc f62f 903e c506 8cbe
000001e0: 738e 7abe 3a2f 3d3f 0887 103f e889 de3d
000001f0: 0121 2fbf 2453 dfbe 3cd5 b4bf 9b43 6ec0
00000200: 6a81 9cbe 9636 a8bf c00a 423b b1f2 c8bd
00000210: c9b0 20be f2f7 b0be 3a5f b1be 62bf 883b
00000220: 5f53 77bd e4ef e9be ed6c d7be bfc2 3f3c
00000230: 6a08 9ebe c2da 75be ff88 e53d 0567 23be
00000240: 7248 9a3e 81b9 1e3d 1baa dbbe 9645 88bc
00000250: 2bf3 b13e c3b1 4d3d 7c78 93be 85a7 07be
00000260: 3b41 ad3d 3c12 8b3e 20dd 4bbc b144 a0bc
00000270: 209b 2fbe 3437 f9be 3533 35be c9fc 85bf
00000280: 7706 d03f 5549 d6c0 1066 0d3e a7f7 883f
00000290: 6bbc 9c3e 3486 b640 da0c 333e b89d 1c3f
000002a0: be0e 953f 05ea c73e eb74 b43d e91e a5be
000002b0: 826d 333e 47c8 20bd baae d1bd 7b6c 5bbe
000002c0: 8cbb dd3c 7854 3bbf de93 febd 8ac9 aa3b
000002d0: 3ea3 7bbd b8ff 1b3d 4598 00be d855 8bbe
000002e0: d295 b6bd 2d9b f0be 665d b2bd afd5 cebd
000002f0: 6446 1b3e 839a c1be 9018 a03d e7b0 94be
00000300: e821 03bf 7ba3 12bf 8173 c7bc 06af e4be
00000310: 0b6d 2bbf 53b2 b9be 6e2a 4d3e e10a e3be
0.037578218 0.12271767 -2.767079 2.1124492 -0.970013 1.0866514 -0.77521247 -6.797737
-0.03878999 -1.5389131 -0.5909843 0.7231526 -1.0627449 0.858667 0.23529397 -0.5997502
1.5771998 0.47634855 2.8775766 0.81354904 -0.1432881 -0.67658055 -1.170054 -0.37480897
-0.5695703 0.58439815 -0.28476772 -0.3322744 -0.04363323 -0.91416246 0.34172434 -1.8358314
-0.20323205 -1.1045277 -0.8162604 -0.12476652 0.27942124 -2.7350523 -0.2876908 0.43207264
0.5490867 0.32135546 -1.1099257 1.2504462 0.34865835 3.2735455 0.4020651 -0.027537717
-5.7998114 -0.52331287 0.86756754 -0.33538073 -0.090190664 0.6396654 0.1920095 2.0121386
0.52186805 1.1825895 -1.2793747 -0.6807252 -0.45784184 -1.7217367 1.853471 0.56343293
-0.03609831 2.5166843 -0.19906919 1.1106774 1.8712103 -1.2333257 0.9779483 -1.3423468
0.19546941 1.2718185 -0.31636438 1.6532097 1.3846117 -2.8461726 -0.49195576 -1.8625082
-0.24192278 -0.38418156 -0.11998023 -0.08880644 -0.11056027 -0.34978023 -0.25616682 0.020735739
-0.19734189 -0.06492065 0.31803256 -2.010256 -1.0929949 -0.46555543 0.65376693 -1.0881119
-0.43575218 1.204725 -2.7734294 -0.9998794 -0.29499662 -0.11958004 -0.023109727 0.3701429
0.6612439 -0.08080774 0.0555522 -0.076923154 0.5258084 -0.05682949 -0.43223548 -0.25256974
0.023273803 -0.35586858 0.04685657 -0.05374694 -0.26928765 -0.029423323 0.2816159 -0.27348915
-0.24468403 0.73900187 0.5645604 0.10866147 -0.68409735 -0.4361812 -1.4127574 -3.7228763
-0.30567485 -1.3141658 0.0029608458 -0.09811915 -0.15692438 -0.34564167 -0.34642965 0.0041732052
-0.060382243 -0.45690835 -0.4207529 0.011704146 -0.30865794 -0.2400923 0.112077706 -0.15957268
0.30133396 0.03875113 -0.42903218 -0.016634744 0.34755835 0.050218355 -0.2880286 -0.13247497
0.08459707 0.2716235 -0.012442857 -0.019564005 -0.17149019 -0.4867493 -0.17695315 -1.0467769
1.6251973 -6.6964517 0.13808465 1.0700577 0.30612502 5.703882 0.17485371 0.6117816
1.1645124 0.3904573 0.08811363 -0.32250145 0.17522243 -0.0392535 -0.102384046 -0.21428101
0.027066968 -0.73175764 -0.12430547 0.0052120136 -0.061434977 0.03808567 -0.12558086 -0.2721393
-0.08915295 -0.4699339 -0.087092206 -0.10099351 0.1516357 -0.37813196 0.07817185 -0.29041216
-0.5122361 -0.572807 -0.024347069 -0.44664782 -0.6696326 -0.36268863 0.20035717 -0.44344237

sequential_1/dense_6/MatMul f4 [10, 20]
00000000: 7d53 6cbf d295 27bf 5f54 f5bc 6bbc 13bf
00000010: c64f 49bf bf76 edbe 8421 61bf 71bb e6bf
00000020: c2ef 38be b591 0e3e b6a3 19bf 8008 87be
00000030: b7da b7be 403b 683e f175 e8be 0805 d6be
00000040: fb83 c1bf 0225 cfbd 1778 a3be 0277 7abe
00000050: 9166 dcbc ae17 97bd 62a3 363f 9de2 51bf
00000060: 6933 98be f5a6 2bbf 0c42 a63f b33e 2940
00000070: 50ad 5d3e 1bf2 ebbd 8776 50be d446 c8be
00000080: a435 adbf 8095 203b e234 973d 64cf 12bd
00000090: 86c3 9cbf 2816 4dbe 62a7 0c3e 6fda 8d3e
000000a0: 38ec 92bf e269 473f 6f92 1cbf 7342 d9bb
000000b0: 006d eebe b61e 0b3f 3c63 a4c0 a77a 89bf
000000c0: f882 c5bc 527f 083f 4ce2 1ebe f866 0fbe
000000d0: 88e5 f6bd 4735 0f3e 6af9 7dbe dbf1 adbe
000000e0: 122f dabf 9cab 88be 83fe 0d3f d131 7abe
000000f0: 51a1 04bf e2e9 343f c2d8 f1bd be0b 40bc
00000100: 4e8a 6b3e 4556 cbbe 2364 34bf 33b6 cfbe
00000110: 94c3 8c3e a83b 61bd aa8e f93d a899 36be
00000120: 571b c138 dc1c c53e 2907 0cbe d774 bc3e
00000130: 7a61 33bf 2d85 253e 240b 50bd 2f63 513e
00000140: f9dd ccbd 6819 aebe fad4 b83d 4c4c cbbd
00000150: 67d9 f6bd 8e24 bcbe 47f4 e2bd 2a29 1ebe
00000160: 703f 3f3e 3bdc ba3e 4d55 b2bd e7e5 9fbe
00000170: 97e3 a9be ae75 d83e 43b9 ef3d 305c d4bc
00000180: 6757 9dbe 7cd4 31be 4857 cdbe 967d 23bd
00000190: a351 b63f d16b 8b3f 880c 95be 2ac0 f93e
000001a0: e791 b4bf 2e58 2c3f ecb0 cfbe 579a 80bf
000001b0: 0de8 cfbe ab37 a8c0 2d6b c4be aaeb a03e
000001c0: f6cd d3bf b0f6 eebd 79e5 febb 3bd7 963e
000001d0: 212e 84bf 54f8 4cbb c5f8 2dbe abd3 0d3e
000001e0: 3c5f 3e3e 4cbc b3be a023 04be 50b8 e0be
000001f0: 8038 aebe 54c0 8cbd f08e 053e 58df f33d
00000200: a87d 853e 1aeb 6abe a03c a1be d829 57bd
00000210: 06d5 e4be 6c5d 8ebe f81c 56bd ea92 2abe
00000220: 243c b6bd 9803 c73e a87b 3cbd 804b 993d
00000230: ebbd d9be 8801 583d 0f2e b5be df9c 1abe
00000240: 3b99 8a3d 23b4 07bd 35b8 e8bd 2524 2dbf
00000250: ea26 d13e 9c18 e6be c684 ee3d 20c1 3cbd
00000260: 5183 a2be ccd4 c33e b55e c13d ff7b 5f3e
00000270: f7a1 9ebe 47b2 fcbe 64c0 c4be f5f4 7f3e
00000280: 8f44 0ac0 d501 1a3f 3a94 403e abbf af3e
00000290: bff6 023f 74d9 fc3e cd9e a1c0 64eb 9d3e
000002a0: ed60 4bbe e7a7 fc3e cf52 213d 711b b3bd
000002b0: 2b5f 32bf 7b7e 943e b494 d93d 7e9f 713e
000002c0: 5e26 94be 84f4 043e 65f5 17be deac 5d3e
000002d0: 6d22 b1bf 6a0b 53bf 9f73 593e 8ed1 a73f
000002e0: 715d 063f 34eb a03f 0f50 7fbf c01b 21c0
000002f0: 851c c83e 1ee7 e03d 931a 753e 0904 5bbe
00000300: 27a7 bbbe 7e51 e23d 8736 e93e 27e3 963e
00000310: fcc7 313a 97c2 373e 7de9 423e 1e73 2c3d
-0.92314893 -0.6546298 -0.029947458 -0.5770938 -0.7863735 -0.4637966 -0.87941766 -1.8025953
-0.1806021 0.1392277 -0.6001543 -0.26373672 -0.35909054 0.22678852 -0.45402482 -0.41800714
-1.5118402 -0.101144806 -0.3192756 -0.2445946 -0.026904376 -0.073775634 0.7134305 -0.8198641
-0.29726723 -0.6705163 1.2988906 2.6444519 0.21648145 -0.11520787 -0.20357715 -0.39116538
-1.3531995 0.0024503171 0.073831335 -0.035842314 -1.2247169 -0.20027983 0.13735726 0.27705714
-1.1478338 0.7789594 -0.6116094 -0.006630236 -0.46567535 0.54343736 -5.1371136 -1.0740556
-0.024110302 0.53319275 -0.15516013 -0.14004123 -0.12055498 0.13985167 -0.24802175 -0.33973584
-1.7045615 -0.26693428 0.5546648 -0.24433066 -0.5180865 0.70669377 -0.118089214 -0.01172155
0.23001978 -0.39714256 -0.70465297 -0.40568694 0.27492964 -0.054988533 0.12185414 -0.17832053
9.2080496e-05 0.3849858 -0.13674606 0.36807892 -0.7007061 0.16164084 -0.050791875 0.20447992
-0.100032754 -0.34003758 0.09024997 -0.09926662 -0.12053185 -0.3674664 -0.110817485 -0.1544539
0.18676543 0.36496148 -0.08707676 -0.3123009 -0.3318145 0.42277282 0.11705258 -0.025922865
-0.30730745 -0.17366213 -0.40105653 -0.03991469 1.4243664 1.0892278 -0.29111123 0.48779422
-1.4107026 0.6732205 -0.40564668 -1.0047101 -0.40606728 -5.2567954 -0.3836302 0.31429797
-1.6547229 -0.11668146 -0.00777882 0.29461083 -1.0326577 -0.0031275945 -0.1698943 0.13850276
0.18591017 -0.35104597 -0.12904215 -0.4389062 -0.3402748 -0.06872621 0.13042808 0.11907834
0.2607243 -0.22941247 -0.31491566 -0.05253014 -0.44693774 -0.2780565 -0.05227372 -0.16657606
-0.0889819 0.3886993 -0.046016365 0.074851036 -0.42527708 0.052735835 -0.35386702 -0.15098904
0.06767508 -0.033130776 -0.1136326 -0.6763328 0.40850002 -0.4494065 0.11646418 -0.046082616
-0.3174081 0.3824829 0.09441892 0.21824645 -0.30982944 -0.49354765 -0.38428032 0.24995787
-2.1604345 0.60159045 0.18806544 0.3432592 0.51157755 0.49384654 -5.050635 0.3084365
-0.19861193 0.4934685 0.039385613 -0.087454684 -0.69676465 0.29002747 0.10624066 0.23595998
-0.28935522 0.129839 -0.14839704 0.21647975 -1.3838631 -0.8243929 0.21235512 1.3110826
0.5248633 1.2571778 -0.99731535 -2.5173187 0.3908426 0.10981582 0.23935919 -0.21388258
-0.36650965 0.110507 0.45549414 0.29470178 0.0006781814 0.17945324 0.19034381 0.04210197

sequential_1/dense_7/MatMul f4 [1, 10]
00000000: 2361 503c d8a1 6d3d ad7d 0c3f 57b9 973d
00000010: 0c83 75bc 2338 83bf 521e 9dbe bb43 883c
00000020: 38f9 5f3e dcf7 e73e
0.012718472 0.058015674 0.54879266 0.07408398 -0.014984857 -1.0251507 -0.30687195 0.016633859
0.21872413 0.4530629
